ChatBot Deep Learning/ChatApp/data.pth (torch, 6763 bytes, 6 tensors)

l1.weight f4 [8, 82]
0	0x3ed3b83e	0.41351503
1	0x3c1e86c3	0.009675684
2	0x3d4e95ab	0.050435703
3	0xbdc419f0	-0.0957526
4	0x3f1ba2cd	0.6079529
5	0x3e8d1dc5	0.27561775
6	0x3e98c75a	0.29839593
7	0x3f390b00	0.7228241
8	0x3d575c69	0.052578364
9	0x3f66c21b	0.9013993
10	0x3e17c64e	0.14821741
11	0xbea7c63f	-0.32768437
12	0xbf01f70b	-0.5076758
13	0x3d2f2abe	0.04276537
14	0x3e9a23c1	0.30105403
15	0x3f31d068	0.6945863
16	0xbf0e6c02	-0.55633557
17	0xbdb78a48	-0.08961922
18	0xbeafd757	-0.3434398
19	0xbec1e9a5	-0.3787357
20	0xbecb5615	-0.39714113
21	0x3f05e9c3	0.5230982
22	0x3ea31560	0.31852245
23	0x3e3a2fa3	0.18182234
24	0x3ea03ccb	0.3129638
25	0x3f4a838c	0.79106975
26	0x3f2f1419	0.6839004
27	0x3f4c30be	0.79761875
28	0x3d9ce550	0.076609254
29	0x3ed06212	0.40699822
30	0x3e61ac62	0.22038415
31	0x3ee9a02d	0.45630017
32	0x3f24de2a	0.64401495
33	0x3e99d593	0.30045757
34	0xbef2dd0e	-0.47434276
35	0xbec01a71	-0.37520173
36	0x3e40567b	0.1878299
37	0x3efbd793	0.49187908
38	0xbeb3bd12	-0.35105187
39	0x3ed2dec2	0.41185576
40	0xbdf21a61	-0.118214376
41	0xbe8d6420	-0.27615452
42	0x3e6236ec	0.22091264
43	0xbccbc088	-0.02487208
44	0xbf1415dd	-0.5784586
45	0x3dd93c4d	0.106072046
46	0x3f942940	1.1575089
47	0xbe01b271	-0.12665726
48	0x3e5ea086	0.21740922
49	0x3e4b0636	0.19826588
50	0xbe838c75	-0.25693098
51	0x3e2b07ea	0.16702238
52	0x3effc984	0.49958432
53	0x3cbb69d1	0.022877606
54	0x3e92fb2f	0.28707263
55	0x3db37fd9	0.087646194
56	0xbe0978db	-0.13425009
57	0xbd7f2bfb	-0.062297802
58	0x3eba8ee9	0.36437157
59	0xbec5229c	-0.38502967
60	0xbeb7cf43	-0.35900316
61	0x3e15d609	0.14632429
62	0x3e8001ce	0.25001377
63	0xbea88e45	-0.32921043
64	0x3f32503a	0.69653666
65	0xbca7f3cb	-0.020501992
66	0xbdf3260f	-0.118724935
67	0xbea2dba4	-0.31808197
68	0xbe7c8ca4	-0.24663025
69	0x3f7b52bf	0.98173136
70	0x3f2c6ce2	0.6735364
71	0x3e83df63	0.25756368
72	0x3eec6869	0.4617341
73	0x3ee7dfd6	0.4528796
74	0xbe8a9033	-0.2706314
75	0x3f1a9d1d	0.60395986
76	0x3d9f77cb	0.077865206
77	0x3f5e8943	0.86928195
78	0xbe89dd63	-0.26926717
79	0xbcaf0d0e	-0.02136853
80	0x3f089a4b	0.5336043
81	0x3f27972a	0.65465033
82	0x3f01db70	0.5072546
83	0xbe33a61c	-0.17543834
84	0x3d58730e	0.0528441
85	0x3e8cd1f7	0.2750394
86	0x3edade42	0.42747694
87	0x3f4248ae	0.7589215
88	0x3ec571ab	0.38563284
89	0xbc5d584a	-0.013509819
90	0x3dd3eb7a	0.10347648
91	0xbea4af92	-0.321652
92	0x3e70e524	0.2352491
93	0xbdbf5726	-0.09342794
94	0x3ded8762	0.11598088
95	0x3db0c64a	0.08631571
96	0xbf3a6fdc	-0.72826934
97	0x3f1fc65c	0.6241205
98	0xbecd019c	-0.4004029
99	0xbdb28ab9	-0.087178655
100	0xbee67b69	-0.4501603
101	0xbe7b0a33	-0.2451561
102	0xbea95564	-0.3307296
103	0x3ed661ae	0.418714
104	0xbf355fc4	-0.7084925
105	0x3ef5fae1	0.48042968
106	0x3dd08ac8	0.101827204
107	0x3f479681	0.77964026
108	0x3e2e2914	0.17007858
109	0x3f2bba70	0.67081356
110	0x3f2d0668	0.675879
111	0x3f113891	0.5672694
112	0xbe34f042	-0.17669776
113	0x3ec49eb1	0.38402322
114	0x3e814e37	0.25254986
115	0x3d6695a7	0.056295063
116	0xbee466a9	-0.44609573
117	0xbede7680	-0.43449783
118	0xbefc9188	-0.49329782
119	0x3e8c71a0	0.2743044
120	0xbec10962	-0.3770247
121	0x3eac2dec	0.33628786
122	0x3e91b575	0.28458753
123	0xbe2e7af9	-0.17039098
124	0xbd9e9b8f	-0.07744514
125	0x3e0270a4	0.12738281
126	0x3e86ac59	0.26303366
127	0xbe16c219	-0.1472248
128	0xbe8756f5	-0.2643353
129	0xbe2dff10	-0.1699183
130	0x3f08fd62	0.5351163
131	0x3dc94d8b	0.09829243
132	0xbe5e36b7	-0.2170056
133	0x3ecc10d4	0.3985659
134	0x3f144337	0.5791506
135	0x3e47e459	0.19520701
136	0xbf2d2889	-0.67639977
137	0x3e2b749f	0.16743706
138	0x3dc50a0b	0.09621056
139	0x3e41866a	0.18898931
140	0xbdcb86c6	-0.09937815
141	0x3ec4dfed	0.38452092
142	0x3e6c6d22	0.23088506
143	0xbf129d13	-0.57270926
144	0xbd033795	-0.03203543
145	0xbecd0040	-0.40039253
146	0x3e0116aa	0.12606302
147	0xbe0e8f48	-0.13921845
148	0xbe8d71db	-0.27625927
149	0xbdf01db7	-0.11724418
150	0xbe640d84	-0.22270781
151	0x3ed6ada0	0.4192934
152	0x3da92953	0.08259835
153	0x3d739ef3	0.059477758
154	0x3ef7293a	0.4827364
155	0x3e6ef3dd	0.23335214
156	0xbb209ecc	-0.0024508713
157	0x3f09309b	0.5358979
158	0x3ea4f4f9	0.3221815
159	0x3ec8941b	0.39175496
160	0x3eba9c5b	0.36447415
161	0x3cff642f	0.031175701
162	0x3ebb4327	0.3657467
163	0x3e8da5b8	0.27665496
164	0xbde129f7	-0.10994332
165	0x3e3e7969	0.18601002
166	0x3e9e7fa3	0.30956754
167	0xbe60c9a0	-0.21951914
168	0xbeacf47a	-0.3378027
169	0x3f0ac4b7	0.54206413
170	0x3f0a69e8	0.5406785
171	0xbec9c749	-0.39409855
172	0x3e626e84	0.22112471
173	0xbf9df76c	-1.2341132
174	0xbd76a843	-0.06021906
175	0xbe2a0f3e	-0.16607377
176	0xbe40e084	-0.18835646
177	0xbc7e0d79	-0.015506142
178	0xbede33db	-0.43398938
179	0xbe901bc5	-0.28146186
180	0xbf2b020f	-0.66800016
181	0x3e9aca00	0.3023224
182	0x3c652458	0.013985716
183	0x3e900c37	0.2813432
184	0xbf2a50c6	-0.665295
185	0xbeb973a6	-0.36221045
186	0xbee4eb26	-0.44710654
187	0x3f052761	0.5201321
188	0x3f1e65d5	0.61874133
189	0xbf24d15a	-0.64381945
190	0xbec089c6	-0.37605113
191	0xbf24c3cb	-0.64361256
192	0x3f317012	0.6931163
193	0xbf6be9d7	-0.92153686
194	0xbbbad16a	-0.0057012336
195	0x3ee94cf9	0.45566538
196	0xbc6a9cc6	-0.014319604
197	0x3f185970	0.5951147
198	0x3e3d6a09	0.1849748
199	0x3f032bcf	0.5123872
200	0xbe15d564	-0.14632183
201	0x3eaaed52	0.33384186
202	0x3c969c7c	0.018385164
203	0xbcc49892	-0.023998532
204	0xbe5bb908	-0.21457303
205	0x3ee8a750	0.4544015
206	0x3f068df4	0.52560353
207	0x3c92b985	0.017910728
208	0x3f6d2311	0.9263163
209	0x3ec5ad22	0.38608652
210	0xbf6985af	-0.9121961
211	0x3ea2d653	0.3180414
212	0x3eaf1335	0.3419434
213	0x3f1d0e8e	0.61350334
214	0xbe524da2	-0.20537427
215	0x3eefbaa4	0.46822083
216	0x3eabdb54	0.33565772
217	0x3f30b812	0.6903087
218	0x3f4c9581	0.79915625
219	0xbd5a7a4c	-0.053339288
220	0xbde924ed	-0.11383996
221	0xbdd94ef5	-0.10610763
222	0x3f802fe4	1.0014615
223	0x3f7746bc	0.9659231
224	0x3f5fd630	0.874362
225	0xbe8d973a	-0.2765444
226	0x3f8ce53a	1.1007454
227	0x3caa418c	0.020783208
228	0xbed53fea	-0.41650325
229	0x3ef72a82	0.48274618
230	0x3ee95b14	0.455773
231	0xbe186f7d	-0.1488628
232	0x3ec87273	0.39149818
233	0xbf321fe7	-0.6957993
234	0xbe891c24	-0.26779282
235	0x3f2521c4	0.6450465
236	0xbe9563df	-0.29177758
237	0xbcb15566	-0.021647166
238	0x3f155319	0.5832992
239	0xbf30e330	-0.6909666
240	0x3e2db96a	0.16965261
241	0x3d416446	0.04721477
242	0x3e5e58e9	0.21713604
243	0xbcb0f931	-0.021603199
244	0x3e0062f9	0.12537755
245	0x3e713ebd	0.23559089
246	0x3ef1dbed	0.47238103
247	0x3da2c32e	0.07947384
248	0xbea4a595	-0.3215758
249	0x3e94ce9e	0.29063886
250	0x3ed03847	0.40667936
251	0xbd5cde0b	-0.053922694
252	0xbe524261	-0.20533134
253	0xbf1b2339	-0.6060062
254	0x3d83764f	0.0641905
255	0x3f8a34f9	1.0797416

l1.bias f4 [8]
0	0x3f7c5b33	0.9857666
1	0x3f47097c	0.77748847
2	0x3f24cbc4	0.6437342
3	0x3f6286b2	0.8848678
4	0x3f6fd874	0.93689656
5	0x3f1aff58	0.60545874
6	0x3f541e13	0.8285839
7	0x3f1b50d2	0.60670197

l2.weight f4 [8, 8]
0	0xbe81fba2	-0.25387293
1	0xbe0f30ff	-0.13983534
2	0x3e9897e8	0.29803395
3	0x3fac660d	1.3468643
4	0x3fb3fa3a	1.4060738
5	0x3f804a6b	1.002271
6	0x3c9458d3	0.018108761
7	0x3c022b13	0.00794484
8	0xbebc6fdf	-0.368041
9	0x3d966304	0.073431045
10	0x3d844dde	0.064601645
11	0xbe8d32f9	-0.27577952
12	0xbe674630	-0.22585368
13	0xbe33841d	-0.17530866
14	0xbe5d388d	-0.21603604
15	0x3e4b8f9f	0.19879006
16	0x3f7248e6	0.94642484
17	0x3fb499f4	1.4109483
18	0x3f6b0fb2	0.91820824
19	0xbd8e0825	-0.06935147
20	0xbf7578a0	-0.95887184
21	0xbed78c70	-0.42099333
22	0x3f87c086	1.0605628
23	0xbedaa8ea	-0.42706996
24	0x3f87217e	1.0557096
25	0xbfb429bf	-1.407524
26	0x3ed6249c	0.41824806
27	0xbf9ce5a9	-1.2257587
28	0x3f61e77c	0.8824384
29	0xbde0e0b9	-0.109803624
30	0x3f9ab0b5	1.2085177
31	0x3fd5058b	1.6642317
32	0x3fa3435c	1.2754931
33	0xbd95e43a	-0.073189214
34	0xbfd758d4	-1.6823983
35	0x3fbc5b39	1.4715339
36	0x3f8d6617	1.104678
37	0xbdde372e	-0.108503684
38	0x3e915ed6	0.28392667
39	0xbe789207	-0.24274455
40	0x3c0e448c	0.008683335
41	0xbedff6f0	-0.43743086
42	0x3fb4b9c8	1.4119196
43	0xbf226b1e	-0.634447
44	0xbf011693	-0.5042507
45	0x3fab4a0c	1.3381972
46	0x3f3db02a	0.7409693
47	0x3f2a34d0	0.66486835
48	0x3fb8669b	1.4406313
49	0x3f471776	0.77770174
50	0x3f324669	0.6963869
51	0x3e0411d5	0.12897427
52	0x3f88dbb3	1.0692047
53	0xbfce077a	-1.6096032
54	0xbe29eb31	-0.16593625
55	0x3ef7aab6	0.4837243
56	0x3fb68c00	1.4261475
57	0x3f9d0671	1.2267591
58	0xbf8f1974	-1.1179643
59	0x3e42ec50	0.19035459
60	0xbf87add4	-1.0599923
61	0x3fa9a77c	1.3254237
62	0x3fa93c1d	1.322147
63	0xbf138f76	-0.5764078

l2.bias f4 [8]
0	0x3eae28f2	0.34015614
1	0xbe1f2dde	-0.1554484
2	0x3f10525d	0.56375676
3	0x3edf6c4d	0.43637314
4	0x3eb9e6ca	0.3630889
5	0xbd838ad4	-0.06422964
6	0x3f45b657	0.77231354
7	0x3ed4f6dd	0.41594592

l3.weight f4 [12, 8]
0	0x3f0ab44b	0.54181355
1	0x3e11edec	0.14250916
2	0xbf6b8496	-0.91999185
3	0xbf3bbc84	-0.73334527
4	0x3f325f4e	0.69676673
5	0xbf8fd395	-1.1236445
6	0xbfae9314	-1.3638635
7	0xbecbb98d	-0.39790002
8	0xbed16d76	-0.40903825
9	0x3e2d45f3	0.16921215
10	0xbf9ad996	-1.2097652
11	0x3f1e70ce	0.61890876
12	0xbf9ceb91	-1.2259389
13	0x3f092360	0.535696
14	0xbfc0bdb9	-1.5057899
15	0x3ce830a3	0.028343504
16	0xbec030ec	-0.37537324
17	0xbec6c98f	-0.38825652
18	0xbf680f2c	-0.9064815
19	0x3ed25a73	0.41084632
20	0x3f0674a3	0.52521724
21	0xbffbfda3	-1.9686779
22	0x3f1a05ec	0.60165286
23	0xbff0cb18	-1.8811979
24	0xbfaa94d4	-1.3326669
25	0x3e12b604	0.14327246
26	0x3f046e33	0.5173065
27	0xbf80724c	-1.0034881
28	0x3ea3a2d5	0.31960168
29	0xbfdd0d1e	-1.7269628
30	0xbdd1b487	-0.10239511
31	0x3f2ed20c	0.68289256
32	0xbfb2c323	-1.3965801
33	0xbd861129	-0.06546242
34	0x3f4c7931	0.79872423
35	0xbf49c41b	-0.7881486
36	0xbfb89d9f	-1.4423102
37	0xbf364dab	-0.7121226
38	0x3f7993bd	0.97491056
39	0xbe021b97	-0.12705837
40	0xc00e0b73	-2.2194488
41	0xbd96e7ee	-0.07368456
42	0xbdd17f43	-0.10229351
43	0x3edbe783	0.42950067
44	0x3e0adf7b	0.13561814
45	0xbee73737	-0.45159313
46	0xbe9aaf7b	-0.30212006
47	0x3ef5f80d	0.4804081
48	0x3e2cf503	0.1689034
49	0xbe96ebd8	-0.2947681
50	0x3e716d93	0.23576955
51	0xbf610c94	-0.8790982
52	0xbf1bc51c	-0.6084764
53	0x3e86b887	0.26312658
54	0xba9c5fba	-0.0011930384
55	0xbf36045a	-0.7110039
56	0xbd558ff7	-0.05213925
57	0xbef4b92d	-0.47797528
58	0xbe597315	-0.21235307
59	0xbfc6d1a9	-1.5532733
60	0xbd645e7c	-0.05575417
61	0x3f0094d0	0.5022707
62	0xbfa88123	-1.3164409
63	0x3f4082cb	0.75199574
64	0xbf6cb51c	-0.9246385
65	0xbe683751	-0.22677352
66	0xbf211212	-0.629182
67	0x3f13508f	0.575448
68	0x3ef66bb2	0.4812904
69	0xbe9e2790	-0.3088956
70	0xbe825989	-0.25458935
71	0xbe98785c	-0.29779327
72	0xbf96d956	-1.1785076
73	0xbeee9302	-0.46596533
74	0xbd995dc8	-0.074885905
75	0x3e97449f	0.2954454
76	0xbf7672b4	-0.96268773
77	0x3ecb0ebc	0.3965968
78	0xbf7aa4d3	-0.9790775
79	0x3f072be0	0.5280132
80	0xbfd65aa2	-1.6746409
81	0xbde68157	-0.11255138
82	0x3cb22f07	0.02175094
83	0x3f417248	0.75565004
84	0xbf465510	-0.77473545
85	0x3ecdd7cd	0.40203705
86	0x3ed124bf	0.40848348
87	0xbf9e793d	-1.2380749
88	0xbe9db992	-0.3080564
89	0xbcde68ff	-0.027149675
90	0xbf0f0ade	-0.55875957
91	0xbf97f6df	-1.1872214
92	0x3f3b20a2	0.7309667
93	0xbfaf86fa	-1.3713067
94	0x3f23886f	0.63880056
95	0xbeca1ee4	-0.39476693

l3.bias f4 [12]
0	0x3e9cb09f	0.306035
1	0x3e74e55e	0.23915622
2	0x3ec9cdeb	0.39414915
3	0x3ec18731	0.37798455
4	0xbde4fe9c	-0.111813754
5	0xbe95eabf	-0.2928066
6	0x3ea2edb9	0.31821993
7	0x3ebfbfe3	0.37451085
8	0xbf0a8229	-0.5410486
9	0x3dc88f8f	0.09793007
10	0x3ebd5e0e	0.3698582
11	0x3cbcfac7	0.023068799
